data.pth (torch, 7767 bytes, 6 tensors)

l1.weight f4 [8, 54]
0.08460024 0.06453483 -0.02556394 0.019050911 -0.105070375 -0.066556424 0.06961362 -0.06711066
-0.044170618 0.08167955 0.07719223 0.09988883 0.02092819 -0.0802905 0.077708095 0.04217358
-0.09623401 -0.03932663 -0.11685895 -0.11118527 -0.019433312 0.09895247 -0.07604939 -0.078752175
-0.11903409 0.06702608 0.093427226 0.008142367 0.033924997 -0.014563352 -0.05439417 -0.040787175
0.13027912 0.12753785 -0.083686635 0.075764686 0.020492285 -0.07230164 0.121405214 0.08632626
-0.09782195 0.037899017 0.081721514 0.022702098 0.0013490617 0.07829419 -0.03511414 -0.024890557
-0.039612092 0.12523046 -0.029620096 0.042590365 -0.11426929 0.011463955 0.07438384 0.10208225
0.027104482 0.073545605 -0.10234772 -0.09010229 -0.019048452 -0.024071015 0.032075703 -0.13365528
0.10149148 0.055744216 -0.0045308024 -0.06281868 -0.09616586 -0.10427425 -0.0032193512 0.06930742
-0.0375181 0.055213466 0.056883305 0.056986764 -0.1296611 -0.060399614 -0.0019639283 -0.12436113
0.04740499 0.029545993 0.09861468 0.053912356 -0.054713413 0.049603075 0.01479663 0.033790007
0.015739948 0.029802516 0.066218525 -0.00696072 -0.005929604 -0.10533737 -0.110425204 -0.011554293
0.13127291 -0.04701473 0.115062654 0.042235017 0.07044616 -0.10543903 -0.12846033 0.1138439
0.019446075 0.004893452 0.12810478 0.04693073 -0.12166225 0.003246218 0.13215241 -0.029081687
-0.041024975 0.008517668 -0.09782943 0.106190935 -0.096188664 -0.07851282 -0.046365187 0.0310328
-0.08918453 0.057436183 0.06552619 0.12637022 -0.028497748 0.03969744 0.113536224 -0.08677094
-0.118054986 -0.04132627 -0.031477764 0.011530682 0.057888836 -0.051927485 0.062172502 0.054083064
-0.0052443743 -0.05844719 -0.0626996 0.08645807 0.10100746 0.13220343 -0.07237625 -0.041972473
-0.042666726 0.06108001 -0.115308255 0.020500645 -0.025737993 0.13078529 0.011442289 0.018621162
-0.10891698 -0.09927007 0.009794027 -0.0840721 0.055874452 0.040148243 0.035264865 -0.075799845
-0.09501433 -0.0783979 -0.1107613 -0.114920706 0.07083483 0.05693315 0.017784983 0.02062349
-0.12467446 0.051729724 0.038448766 0.015020907 -0.008924067 -0.016785048 0.0015739352 -0.1295673
0.022386834 0.113953054 0.0034900308 -0.03382794 0.0650523 0.12656689 -0.038044006 0.09886427
-0.014685623 0.10394108 -0.12235981 -0.052555956 0.020568565 0.044538677 0.11575383 0.09202884
0.09348786 -0.08783014 -0.001679644 -0.005755812 -0.13135663 -0.09483584 -0.12282773 0.09484242
-0.11561704 -0.080096036 -0.030664064 0.07775609 0.041309565 0.13557354 0.024404794 0.06919122
0.11259876 -0.08365604 -0.10977258 0.09443468 -0.040434986 -0.036912955 -0.039412588 -0.13026913
0.08905998 -0.06478297 -0.07850768 -0.0043776482 0.12058589 0.10853556 -0.08775802 0.07060002
-0.024012536 0.018454835 -0.09342315 0.021912634 -0.023373 0.03778225 0.09321934 0.06337896
0.051840976 0.0795853 -0.020350084 -0.040413603 -0.04976239 -0.034956977 0.08206132 0.122217864
0.08344227 0.0141 -0.09476798 -0.11073468 -0.024481587 -0.100975506 -0.1338302 0.072726965
0.12121865 -0.049775854 0.11619511 -0.11982493 0.13561451 0.03893408 0.07525873 0.004474178
00000000: e442 ad3d d62a 843d 786b d1bc a810 9c3c
00000010: 232f d7bd bc4e 88bd 9691 8e3d 5071 89bd
00000020: 40ec 34bd 9c47 a73d f616 9e3d 8492 cc3d
00000030: 9871 ab3c 586f a4bd 6c25 9f3d 34be 2c3d
00000040: 5616 c5bd f614 21bd bf53 efbd 1ab5 e3bd
00000050: 9c32 9fbc 98a7 ca3d c8bf 9bbd d248 a1bd
00000060: 25c8 f3bd f844 893d c656 bf3d 9067 053c
00000070: f0f4 0a3d 209b 6ebc 6ccc 5ebd 7410 27bd
00000080: e467 053e 4899 023e e663 abbd 842a 9b3d
00000090: 70df a73c e212 94bd 4ca3 f83d d2cb b03d
000000a0: e056 c8bd 003c 1b3d 9c5d a73d c0f9 b93c
000000b0: 00d3 b03a b458 a03d d8d3 0fbd 48e7 cbbc
000000c0: 4a40 22bd 6a3c 003e d8a5 f2bc 3c73 2e3d
000000d0: 0406 eabd 50d3 3b3c 8e56 983d 8010 d13d
000000e0: 380a de3c 149f 963d ae9b d1bd 8d87 b8bd
000000f0: 800b 9cbc 9430 c5bc d061 033d eedc 08be
00000100: c4da cf3d 0c54 643d 2077 94bb 15a7 80bd
00000110: 9bf2 c4bd bd8d d5bd c0fb 52bb 0cf1 8d3d
00000120: 94ac 19bd 8427 623d 78fe 683d f46a 693d
00000130: e1c5 04be 9665 77bd 40b5 00bb 0cb1 febd
00000140: bc2b 423d 700a f23c 7ef6 c93d 34d3 5c3d
00000150: 2c1b 60bd 982c 4b3d 906d 723c 6467 0a3d
00000160: 10f1 803c 6824 f43c 949d 873d c016 e4bb
00000170: 204d c2bb 1ebb d7bd 9c26 e2bd 384e 3dbc
00000180: 686c 063e 8492 40bd f8a5 eb3d a0fe 2c3d
00000190: 1446 903d 6bf0 d7bd 1b8b 03be fe26 e93d
000001a0: 604d 9f3c 4059 a03b e62d 033e 703a 403d
000001b0: 0f2a f9bd 80be 543b f652 073e b83c eebc
000001c0: ce09 28bd b08d 0b3c cc5a c8bd a27a d93d
000001d0: 90fe c4bd 54cb a0bd 6ce9 3dbd 8038 fe3c
000001e0: 61a6 b6bd 3442 6b3d 9832 863d 3267 013e
000001f0: 1c74 e9bc c899 223d ae85 e83d f6b4 b1bd
00000200: d0c6 f1bd bc45 29bd d4ee 00bd 30eb 3c3c
00000210: d81c 6d3d eab1 54bd 98a8 7e3d 3486 5d3d
00000220: 00d9 abbb 5266 6fbd a668 80bd ee10 b13d
00000230: 00dd ce3d 5660 073e 003a 94bd 54eb 2bbd
00000240: 4ec3 2ebd 082f 7a3d bc26 ecbd f8f0 a73c
00000250: 7cd8 d2bc 94ec 053e 7078 3b3c 688b 983c
00000260: de0f dfbd 1b4e cbbd 2077 203c fe2d acbd
00000270: 9cdc 643d 7c72 243d e471 103d f33c 9bbd
00000280: e096 c2bd 148f a0bd d2d6 e2bd 8c5b ebbd
00000290: da11 913d bc32 693d d0b1 913c 98f2 a83c
000002a0: 5355 ffbd 8ce2 533d 747c 1d3d 401a 763c
000002b0: 4036 12bc cc80 89bc 804c ce3a 4aad 04be
000002c0: 9864 b73c 3860 e93d 00b9 643b 2a8f 0abd
000002d0: 243a 853d c09a 013e 08d4 1bbd 5a79 ca3d
000002e0: f89b 70bc 10df d43d c897 fabd ea44 57bd
000002f0: 687f a83c 306e 363d 5810 ed3d 9e79 bc3d
00000300: 9076 bf3d 4ae0 b3bd 8027 dcba 409b bcbb
00000310: 5a82 06be 4b39 c2bd 1b8d fbbd be3c c23d
00000320: a0c8 ecbd 6409 a4bd 3433 fbbc 963e 9f3d
00000330: 3834 293d cad3 0a3e 90ec c73c 20b4 8d3d
00000340: 2e9a e63d dc53 abbd 72d0 e0bd f866 c13d
00000350: 289f 25bd 0a32 17bd 186f 21bd 4565 05be
00000360: 1465 b63d efac 84bd a2c8 a0bd 6072 8fbb
00000370: bcf5 f63d e447 de3d 7aba b3bd be96 903d
00000380: f0b5 c4bc 982e 973c a354 bfbd 2082 b33c
00000390: bc78 bfbc 90c1 1a3d c8e9 be3d d4cc 813d
000003a0: 3457 543d 9efd a23d 38b5 a6bc bc88 25bd
000003b0: a6d3 4bbd 0c2f 0fbd c40f a83d 5c4d fa3d
000003c0: c8e3 aa3d b003 673c b715 c2bd ddc8 e2bd
000003d0: 9c8d c8bc 3fcc cebd c90a 09be e0f1 943d
000003e0: 7c41 f83d c4e1 4bbd b4f7 ed3d c666 f5bd
000003f0: 88de 0a3e 5879 1f3d 4021 9a3d 209c 923b

l1.bias f4 [8]
-0.0944837 0.04382302 0.0058571845 -0.08418599 0.011597037 -0.08374438 -0.046871684 -0.060821474
00000000: ac80 c1bd c47f 333d a0ed bf3b b469 acbd
00000010: 8001 3e3c 2c82 abbd 86fc 3fbd f01f 79bd

l2.weight f4 [8, 54]
-0.08938205 -0.11148003 -0.04335572 -0.018091448 -0.036021896 -0.10766209 -0.11442021 0.02108118
0.118561655 -0.08247475 0.12255585 0.106871635 -0.05435829 -0.044520527 0.09241673 -0.08847447
0.021411285 0.11895722 -0.10866765 0.007952407 -0.099572375 -0.06506809 0.008255452 -0.1360339
0.0067997575 -0.11127418 0.11250761 -0.046072535 0.0004746616 0.0498901 -0.119379655 0.076324284
-0.05079022 -0.080610074 0.056536734 0.056034908 0.09106335 -0.057301037 -0.11175722 0.09740324
0.05333276 0.049560472 -0.048564985 0.031138644 -0.12095794 -0.10577112 -0.008241624 -0.07025036
-0.08714339 0.034457758 -0.13122728 0.10013834 0.1103954 -0.05312901 -0.040784366 -0.08074354
-0.122550584 0.097541794 0.050628856 -0.088551454 0.046534464 -0.013728797 0.11035985 0.10092893
0.11202434 -0.031200424 -0.055681735 0.04312186 0.048012033 -0.051394075 0.104327455 0.014508709
0.025784776 -0.021351524 0.026324466 0.07276939 -0.038418144 -0.120524794 0.039005995 -0.014678419
-0.11265727 -0.12813829 -0.041815132 -0.10516732 0.0027955174 -0.10979757 0.13264835 0.014624208
-0.029295161 -0.014168471 -0.07340137 -0.102029145 0.016222253 -0.04648713 0.035112068 0.060921505
-0.018944904 -0.013185412 0.031687826 -0.006250903 -0.058271825 0.034520224 0.064915776 -0.07171519
-0.09619806 -0.12563953 -0.09845723 -0.062103182 0.062234193 -0.069272235 0.096019775 -0.08714089
-0.0632508 0.13146478 0.033051 -0.05178362 -0.09758145 0.12078974 0.0046195686 -0.07443748
0.02319847 -0.07187853 -0.118236616 0.05334729 -0.10287994 0.0026866943 0.08489147 -0.0978888
-0.070510894 0.091768086 0.087237105 -0.029895984 0.103032365 -0.038416848 0.008852303 0.13503447
-0.12028045 0.042565584 -0.048762895 0.07828757 0.080178574 -0.05544968 0.100084126 0.08308488
-0.13346113 0.10568391 -0.106238306 0.11150795 0.103713185 -0.06522533 0.13529968 -0.04746093
-0.05775041 -0.017647803 0.12525678 0.034259588 0.0071942806 -0.047535107 -0.09750503 -0.015439346
-0.027010165 0.028981388 0.009305134 0.0968131 0.030557767 0.10130246 -0.06706988 -0.0064440966
0.031638518 0.070640385 -0.012351327 0.07865803 0.012867644 0.09683454 -0.089339405 0.11314866
-0.018235102 -0.053837404 -0.058536217 -0.0044495165 -0.054124393 -0.011192568 -0.08415 -0.1167525
-0.07825433 0.026833102 -0.1154119 0.12343806 0.04513143 -0.057955995 -0.045653418 0.059970155
0.05385807 0.04381807 0.07289834 0.031188965 -0.05303649 0.03636372 -0.108143665 -0.06429591
-0.12505175 0.08954245 -0.12072003 -0.004650414 0.0060714185 -0.07402064 -0.046184987 0.078225076
-0.12558998 0.07997146 0.11476874 -0.012470834 0.026060522 0.039389998 -0.05959735 -0.04105784
0.08705586 -0.03996806 0.022911012 -0.096953735 0.038891777 0.025686502 -0.097715616 0.013819039
-0.047858953 0.03149484 -0.037194215 -0.043312147 0.11461574 0.03621553 0.05789946 0.08016372
-0.10529066 0.04099761 -0.108136654 0.007918492 -0.12982781 0.08675766 -0.102420494 -0.0038663596
-0.05881419 0.055038527 0.019969255 -0.059235692 -0.11308361 0.06800926 -0.0008353293 0.12890774
0.021045968 -0.13519469 -0.13000534 -0.051230684 0.046022788 0.040642127 -0.055545777 0.0794902
00000000: f00d b7bd a44f e4bd c495 31bd 8434 94bc
00000010: b28b 13bd f17d dcbd 2555 eabd 70b2 ac3c
00000020: 74d0 f23d 86e8 a8bd 90fe fa3d 84df da3d
00000030: cca6 5ebd 285b 36bd fc44 bd3d 1a32 b5bd
00000040: b866 af3c d89f f33d 258d debd d04a 023c
00000050: 9aec cbbd 6b42 85bd e041 073c 784c 0bbe
00000060: 80d0 de3b b8e3 e3bd 646a e63d 8eb6 3cbd
00000070: 00dc f839 9059 4c3d 527d f4bd e84f 9c3d
00000080: 6809 50bd e516 a5bd 1093 673d dc84 653d
00000090: 6c7f ba3d 7eb4 6abd f8e0 e4bd 5a7b c73d
000000a0: 7473 5a3d ecff 4a3d 14ec 46bd 7816 ff3c
000000b0: ccb8 f7bd 879e d8bd e007 07bc 6cdf 8fbd
000000c0: 3c78 b2bd 9423 0d3d 7260 06be 5415 cd3d
000000d0: fc16 e23d ce9d 59bd 820d 27bd de5c a5bd
000000e0: cdfb fabd fec3 c73d 3460 4f3d 775a b5bd
000000f0: ec9a 3e3d c0ee 60bc 5804 e23d d4b3 ce3d
00000100: 046d e53d 0898 ffbc 8812 64bd 8ca0 303d
00000110: 44a8 443d 9882 52bd a2a9 d53d f0b5 6d3c
00000120: 983a d33c 64e9 aebc 68a6 d73c 1e08 953d
00000130: 585c 1dbd b4d5 f6bd c0c4 1f3d c07d 70bc
00000140: dbb8 e6bd af36 03be 5846 2bbd f761 d7bd
00000150: 0035 373b 8cdd e0bd f8d4 073e 609a 6f3c
00000160: 68fc efbc e022 68bc 7553 96bd a8f4 d0bd
00000170: 88e4 843c 4a69 3ebd acd1 0f3d d488 793d
00000180: 5832 9bbc a007 58bc 18cb 013d 60d4 ccbb
00000190: 70ae 6ebd 1465 0d3d 90f2 843d 6adf 92bd
000001a0: 7d03 c5bd a6a7 00be f2a3 c9bd e85f 7ebd
000001b0: 48e9 7e3d 9ade 8dbd 04a6 c43d ec76 b2bd
000001c0: a389 81bd b49e 063e 7c60 073d 101b 54bd
000001d0: c9d8 c7bd 9c60 f73d c05f 973b ad72 98bd
000001e0: b80a be3c 0d35 93bd 0a26 f2bd b082 5a3d
000001f0: b8b2 d2bd 4013 303b 94db ad3d ec79 c8bd
00000200: 0468 90bd e8f0 bb3d 5ea9 b23d 6ce8 f4bc
00000210: a202 d33d fc5a 1dbd 4009 113c 7a46 0a3e
00000220: 9955 f6bd 4059 2e3d 9abb 47bd 3c55 a03d
00000230: aa34 a43d 341f 63bd e8f8 cc3d 6828 aa3d
00000240: 09aa 08be ce70 d83d 7893 d9bd 485e e43d
00000250: 9467 d43d dc94 85bd 008c 0a3e 6466 42bd
00000260: b28b 6cbd 2092 90bc 5043 003e c853 0c3d
00000270: 00be eb3b 2cb4 42bd b8b0 c7bd 50f5 7cbc
00000280: 6c44 ddbc 606a ed3c 9074 183c f245 c63d
00000290: 4854 fa3c aa77 cf3d ef5b 89bd 0029 d3bb
000002a0: 6497 013d e8ab 903d 385d 4abc 7617 a13d
000002b0: d0d2 523c 3051 c63d 94f7 b6bd 7cba e73d
000002c0: c861 95bc 9c84 5cbd acc3 6fbd 40cd 91bb
000002d0: 8ab1 5dbd 0861 37bc d656 acbd ef1b efbd
000002e0: ce43 a0bd 18d1 db3c 135d ecbd 18cd fc3d
000002f0: bcdb 383d 4463 6dbd 14ff 3abd 44a3 753d
00000300: 489a 5c3d 947a 333d ba4b 953d 0080 ff3c
00000310: ca3c 59bd 20f2 143d 6d7a ddbd 93ad 83bd
00000320: 910d 00be 0862 b73d 103c f7bd 8062 98bb
00000330: c0f2 c63b 2298 97bd 782c 3dbd 7834 a03d
00000340: a99a 00be 14c8 a33d e00b eb3d 7852 4cbc
00000350: e07c d53c 6857 213d 5a1c 74bd 442c 28bd
00000360: 584a b23d 8cb5 23bd e0af bb3c ae8f c6bd
00000370: fc4c 1f3d 806c d23c 201f c8bd 4069 623c
00000380: c007 44bd bc00 013d f658 18bd 1468 31bd
00000390: a8bb ea3d bc56 143d fc27 6d3d e02c a43d
000003a0: a1a2 d7bd 1ced 273d c076 ddbd 90bc 013c
000003b0: 95f1 04be 00ae b13d d6c1 d1bd c062 7dbb
000003c0: 26e7 70bd 1470 613d 9096 a33c 20a1 72bd
000003d0: 6198 e7bd 7048 8b3d 00fa 5aba 6400 043e
000003e0: 9868 ac3c 7a70 0abe 1f20 05be 44d7 51bd
000003f0: 6482 3c3d 5c78 263d f883 63bd c2cb a23d

l2.bias f4 [8]
-0.06271902 0.07010542 0.060269654 0.06069292 0.11709514 -0.0655949 0.007273242 -0.07502912
00000000: d472 80bd 6e93 8f3d 50dd 763d 2499 783d
00000010: 94cf ef3d 9e56 86bd 6054 ee3b dea8 99bd

l3.weight f4 [7, 54]
-0.82376295 -0.75381213 -0.62763226 -0.58898187 -0.86868066 -1.2009578 -0.73581207 -0.67090005
-0.5491472 -0.76365584 -0.7813132 0.7830415 0.097515576 0.82821757 -0.5321831 0.7078133
-0.8153181 -1.1635554 -0.57247424 -1.0089974 -0.58520776 -1.0369346 -1.1608584 0.69328326
0.43705642 -0.667176 -0.51022094 -0.6921898 -0.26841778 -0.707634 -0.78576714 0.89460415
-0.52105427 -0.79074 -0.64680785 0.73573065 -0.50940096 -0.37064785 -0.5671392 -0.6021551
-0.55975527 -0.73571855 0.59491503 -0.659515 0.75355256 -0.66484463 -1.2093459 -0.69314176
-0.77517486 -0.6671852 0.68070763 -0.6626343 -0.65100735 -1.4635508 -0.88326883 0.83958834
-0.80269814 -0.69955003 -0.9171521 -1.2802634 -0.5262952 -0.8364521 -0.7650383 -0.81638765
-0.94949144 -0.6826668 0.21864785 -0.72573775 0.83607435 -0.6192782 -0.9527926 -1.1537716
-0.66146845 -1.1538991 -0.6885717 -1.1534647 -1.1403601 -0.9786096 -0.6789375 -0.6368744
-0.856281 0.97576576 -0.3840398 0.884722 -0.7789012 -0.7186963 -0.5561476 -1.0088128
0.9215852 -0.5986313 -0.48007107 -0.62280375 -0.5405755 -0.43588573 -0.96854496 -1.1019698
-0.42047867 0.64504343 -0.7449782 0.81382287 -1.3406614 -0.57631534 -0.75382936 -0.88756585
-0.49069878 -0.7941685 -0.42211714 -0.29249835 -1.0839624 -0.8304268 -0.93615144 -0.7902405
-1.2720091 1.3976808 -0.7878054 -0.7027323 -0.76770186 -0.7880882 -1.0147665 -0.6219089
-1.4178466 -0.68731344 -0.7610612 -0.6024358 -1.0346185 1.207404 -0.83433354 -1.2841952
-0.8561793 -1.2730238 -1.3554682 -1.2885023 -0.86183226 -0.85269743 -0.75811875 -0.893644
-0.39021364 -0.8505668 0.9187606 -0.68332094 -0.5244353 -0.92042685 -0.8745994 -0.4193843
-0.5322617 -0.8892515 -0.63997245 -0.6692384 0.9152879 -1.0045891 -0.59741783 -0.65787935
-1.0010813 -0.7834447 -1.8703529 -0.7662805 -0.7629457 -0.8957679 -0.41443095 -0.68196344
-0.6400775 0.047464684 -1.0187002 -1.005458 -0.81080407 0.6469252 0.55095816 -1.4328588
-0.6205865 -0.69405764 -1.178704 -0.70604974 0.85116786 -0.9356285 -1.4273679 -0.9896833
-0.9611915 -0.48271593 0.8529179 -1.493507 -0.79209006 1.2835225 -0.86512357 1.0497384
1.1098957 0.99034214 -0.9269094 0.86326325 -1.1590129 -0.90525115 -0.9293617 -0.7915515
-1.1102557 -1.0903004 -0.68186265 -0.8770595 -1.0984703 -0.5896098 -0.787232 -1.0945865
-0.5959537 -0.7844138 -1.0757594 -0.9914069 -0.79402417 -0.768393 -1.3002679 -0.9498477
-1.98899 -0.8362745 0.50649494 -1.2790252 -0.5054163 -0.71548516 -0.6788909 -0.25421023
-0.79117817 -0.8736162 -0.9956759 -0.76617306 -0.054797683 -1.0273494 -0.5429756 -0.74989915
-0.75958925 -0.9730774 -0.7609498 -0.57279587 0.6389542 -0.4965812 -0.75602174 -0.59303373
-0.9121955 -1.0847098 0.6865952 -0.9378638 -0.7056401 -0.98886406 -1.0296154 -1.0370729
-0.6882478 -0.87269765 0.80475616 -0.8645923 0.63217306 -1.0535363 -0.8531433 -0.44448256
-0.44678077 -1.1418903 -0.62082475 -0.5483319 0.47748482 -0.79482263 -0.5688074 -0.47019392
00000000: 21e2 52bf d5f9 40bf 82ac 20bf 84c7 16bf
00000010: db61 5ebf fcb8 99bf 2e5e 3cbf 1bc0 2bbf
00000020: e994 0cbf f37e 43bf 2404 48bf 6875 483f
00000030: 3fb6 c73d 1106 543f 273d 08bf 4133 353f
00000040: b0b8 50bf 62ef 94bf ac8d 12bf d426 81bf
00000050: 2dd0 15bf 46ba 84bf 0297 94bf 037b 313f
00000060: dcc5 df3e 0ccc 2abf d79d 02bf 5a33 31bf
00000070: 0e6e 89be 8027 35bf 0928 49bf c704 653f
00000080: d063 05bf f06d 4abf 3395 25bf d858 3c3f
00000090: 1a68 02bf 8ec5 bdbe 0930 11bf d626 1abf
000000a0: 1f4c 0fbf 0d58 3cbf 5a4c 183f fad5 28bf
000000b0: d2e8 403f 4233 2abf d9cb 9abf bd71 31bf
000000c0: dc71 46bf a6cc 2abf db42 2e3f 67a2 29bf
000000d0: 6ba8 26bf a255 bbbf e81d 62bf 43ef 563f
000000e0: a07d 4dbf b615 33bf 7bca 6abf acdf a3bf
000000f0: 48bb 06bf ba21 56bf 8dd9 43bf c8fe 50bf
00000100: df11 73bf 40c3 2ebf 39e5 5f3e f3c9 39bf
00000110: f808 563f 0489 1ebf 37ea 73bf caae 93bf
00000120: ff55 29bf f7b2 93bf 3c46 30bf bba4 93bf
00000130: 52f7 91bf 2986 7abf d9ce 2dbf 330a 23bf
00000140: 3b35 5bbf c9cb 793f dda0 c4be 247d 623f
00000150: 1266 47bf 7bfc 37bf b05f 0ebf c720 81bf
00000160: 02ed 6b3f e73f 19bf e0cb f5be 1170 1fbf
00000170: 2863 0abf 6a2c dfbe 90f2 77bf 590d 8dbf
00000180: fb48 d7be 9121 253f e4b6 3ebf b256 503f
00000190: cb9a abbf 6789 13bf f6fa 40bf 8437 63bf
000001a0: df3c fbbe a04e 4bbf bd1f d8be 58c2 95be
000001b0: 48bf 8abf da96 54bf 9fa7 6fbf 344d 4abf
000001c0: 32d1 a2bf 34e7 b23f 9dad 49bf 44e6 33bf
000001d0: 1c88 44bf 26c0 49bf dee3 81bf 6c35 1fbf
000001e0: ff7b b5bf c6f3 2fbf e8d4 42bf 3c39 1abf
000001f0: 616e 84bf 378c 9a3f e296 55bf 8260 a4bf
00000200: 912e 5bbf 72f2 a2bf fb7f adbf a5ed a4bf
00000210: 0aa1 5cbf 614a 5abf 1214 42bf dac5 64bf
00000220: 15ca c7be bfbe 59bf e533 6b3f 1fee 2ebf
00000230: 6441 06bf 18a1 6bbf bfe5 5fbf 8ab9 d6be
00000240: 4e42 08bf fca5 63bf 3cd5 23bf 3553 2bbf
00000250: 4f50 6a3f 6096 80bf 60f0 18bf c86a 28bf
00000260: 6f23 80bf d58f 48bf b967 efbf f52a 44bf
00000270: 6950 43bf 0c51 65bf 4b30 d4be 2895 2ebf
00000280: 1edc 23bf 546a 423d c564 82bf d9b2 80bf
00000290: db90 4fbf e49c 253f 980b 0d3f eb67 b7bf
000002a0: c2de 1ebf c3ad 31bf c6df 96bf adbf 34bf
000002b0: 23e6 593f 5985 6fbf feb3 b6bf e25b 7dbf
000002c0: a510 76bf 8b26 f7be d458 5a3f 3d2b bfbf
000002d0: 6ac6 4abf 774a a43f bd78 5dbf d45d 863f
000002e0: 1011 8e3f 1087 7d3f ef49 6dbf d2fe 5c3f
000002f0: 895a 94bf 8abe 67bf a6ea 6dbf 1ea3 4abf
00000300: dc1c 8ebf f78e 8bbf 8d8e 2ebf f986 60bf
00000310: ad9a 8cbf abf0 16bf 0988 49bf 691b 8cbf
00000320: 6c90 18bf 58cf 48bf 7cb2 89bf d8cc 7dbf
00000330: 2b45 4bbf 67b5 44bf 2e6f a6bf 3829 73bf
00000340: 3997 febf 1616 56bf a7a9 013f 19b7 a3bf
00000350: f662 01bf 092a 37bf cbcb 2dbf d827 82be
00000360: a78a 4abf 50a5 5fbf 9ee4 7ebf eb23 44bf
00000370: 8973 60bd 2f80 83bf 7300 0bbf 64f9 3fbf
00000380: 7174 42bf 9a1b 79bf 9bcd 42bf c0a2 12bf
00000390: 8192 233f e43f febe a48a 41bf 0fd1 17bf
000003a0: a585 69bf c5d7 8abf b4c4 2f3f d817 70bf
000003b0: d4a4 34bf 3226 7dbf 70ca 83bf cebe 84bf
000003c0: 0231 30bf 1d69 5fbf 8004 4e3f ec55 5dbf
000003d0: 18d6 213f 47da 86bf 9967 5abf 3893 e3be
000003e0: 73c0 e4be 7629 92bf 5fee 1ebf 7b5f 0cbf
000003f0: e478 f43e 7f79 4bbf 5d9d 11bf 42bd f0be

l3.bias f4 [7]
-1.0390899 -0.7819231 0.5367016 1.0457422 -0.8960069 -0.5605705 0.18587343
00000000: e600 85bf 1d2c 48bf 4765 093f e1da 853f
00000010: b560 65bf 8c81 0fbf 9b55 3e3e
